…
[34m[1mtensorboard: [0mStart with 'tensorboard --logdir runs/train', view at http://localhost:6006/
[34m[1mhyperparameters: [0mlr0=0.01, lrf=0.1, momentum=0.937, weight_decay=0.0005, warmup_epochs=3.0, warmup_momentum=0.8, warmup_bias_lr=0.1, box=0.05, cls=0.3, cls_pw=1.0, obj=0.7, obj_pw=1.0, iou_t=0.2, anchor_t=4.0, fl_gamma=0.0, hsv_h=0.015, hsv_s=0.7, hsv_v=0.4, degrees=0.0, translate=0.2, scale=0.9, shear=0.0, perspective=0.0, flipud=0.0, fliplr=0.5, mosaic=1.0, mixup=0.15, copy_paste=0.0, paste_in=0.15
Overriding model.yaml nc=80 with nc=1

                 from  n    params  module                                  arguments                     
  0                -1  1       928  models.common.Conv                      [3, 32, 3, 1]                 
  1                -1  1     18560  models.common.Conv                      [32, 64, 3, 2]                
  2                -1  1     36992  models.common.Conv                      [64, 64, 3, 1]                
  3                -1  1     73984  models.common.Conv                      [64, 128, 3, 2]               
  4                -1  1      8320  models.common.Conv                      [128, 64, 1, 1]               
  5                -2  1      8320  models.common.Conv                      [128, 64, 1, 1]               
  6                -1  1     36992  models.common.Conv                      [64, 64, 3, 1]                
  7                -1  1     36992  models.common.Conv                      [64, 64, 3, 1]                
  8                -1  1     36992  models.common.Conv                      [64, 64, 3, 1]                
  9                -1  1     36992  models.common.Conv                      [64, 64, 3, 1]                
 10  [-1, -3, -5, -6]  1         0  models.common.Concat                    [1]                           
 11                -1  1     66048  models.common.Conv                      [256, 256, 1, 1]              
 12                -1  1         0  models.common.MP                        []                            
 13                -1  1     33024  models.common.Conv                      [256, 128, 1, 1]              
 14                -3  1     33024  models.common.Conv                      [256, 128, 1, 1]              
 15                -1  1    147712  models.common.Conv                      [128, 128, 3, 2]              
 16          [-1, -3]  1         0  models.common.Concat                    [1]                           
 17                -1  1     33024  models.common.Conv                      [256, 128, 1, 1]              
 18                -2  1     33024  models.common.Conv                      [256, 128, 1, 1]              
 19                -1  1    147712  models.common.Conv                      [128, 128, 3, 1]              
 20                -1  1    147712  models.common.Conv                      [128, 128, 3, 1]              
 21                -1  1    147712  models.common.Conv                      [128, 128, 3, 1]              
 22                -1  1    147712  models.common.Conv                      [128, 128, 3, 1]              
 23  [-1, -3, -5, -6]  1         0  models.common.Concat                    [1]                           
 24                -1  1    263168  models.common.Conv                      [512, 512, 1, 1]              
 25                -1  1         0  models.common.MP                        []                            
 26                -1  1    131584  models.common.Conv                      [512, 256, 1, 1]              
 27                -3  1    131584  models.common.Conv                      [512, 256, 1, 1]              
 28                -1  1    590336  models.common.Conv                      [256, 256, 3, 2]              
 29          [-1, -3]  1         0  models.common.Concat                    [1]                           
 30                -1  1    131584  models.common.Conv                      [512, 256, 1, 1]              
 31                -2  1    131584  models.common.Conv                      [512, 256, 1, 1]              
 32                -1  1    590336  models.common.Conv                      [256, 256, 3, 1]              
 33                -1  1    590336  models.common.Conv                      [256, 256, 3, 1]              
 34                -1  1    590336  models.common.Conv                      [256, 256, 3, 1]              
 35                -1  1    590336  models.common.Conv                      [256, 256, 3, 1]              
 36  [-1, -3, -5, -6]  1         0  models.common.Concat                    [1]                           
 37                -1  1   1050624  models.common.Conv                      [1024, 1024, 1, 1]            
 38                -1  1         0  models.common.MP                        []                            
 39                -1  1    525312  models.common.Conv                      [1024, 512, 1, 1]             
 40                -3  1    525312  models.common.Conv                      [1024, 512, 1, 1]             
 41                -1  1   2360320  models.common.Conv                      [512, 512, 3, 2]              
 42          [-1, -3]  1         0  models.common.Concat                    [1]                           
 43                -1  1    262656  models.common.Conv                      [1024, 256, 1, 1]             
 44                -2  1    262656  models.common.Conv                      [1024, 256, 1, 1]             
 45                -1  1    590336  models.common.Conv                      [256, 256, 3, 1]              
 46                -1  1    590336  models.common.Conv                      [256, 256, 3, 1]              
 47                -1  1    590336  models.common.Conv                      [256, 256, 3, 1]              
 48                -1  1    590336  models.common.Conv                      [256, 256, 3, 1]              
 49  [-1, -3, -5, -6]  1         0  models.common.Concat                    [1]                           
 50                -1  1   1050624  models.common.Conv                      [1024, 1024, 1, 1]            
 51                -1  1   7609344  models.common.SPPCSPC                   [1024, 512, 1]                
 52                -1  1    131584  models.common.Conv                      [512, 256, 1, 1]              
 53                -1  1         0  torch.nn.modules.upsampling.Upsample    [None, 2, 'nearest']          
 54                37  1    262656  models.common.Conv                      [1024, 256, 1, 1]             
 55          [-1, -2]  1         0  models.common.Concat                    [1]                           
 56                -1  1    131584  models.common.Conv                      [512, 256, 1, 1]              
 57                -2  1    131584  models.common.Conv                      [512, 256, 1, 1]              
 58                -1  1    295168  models.common.Conv                      [256, 128, 3, 1]              
 59                -1  1    147712  models.common.Conv                      [128, 128, 3, 1]              
 60                -1  1    147712  models.common.Conv                      [128, 128, 3, 1]              
 61                -1  1    147712  models.common.Conv                      [128, 128, 3, 1]              
 62[-1, -2, -3, -4, -5, -6]  1         0  models.common.Concat                    [1]                           
 63                -1  1    262656  models.common.Conv                      [1024, 256, 1, 1]             
 64                -1  1     33024  models.common.Conv                      [256, 128, 1, 1]              
 65                -1  1         0  torch.nn.modules.upsampling.Upsample    [None, 2, 'nearest']          
 66                24  1     65792  models.common.Conv                      [512, 128, 1, 1]              
 67          [-1, -2]  1         0  models.common.Concat                    [1]                           
 68                -1  1     33024  models.common.Conv                      [256, 128, 1, 1]              
 69                -2  1     33024  models.common.Conv                      [256, 128, 1, 1]              
 70                -1  1     73856  models.common.Conv                      [128, 64, 3, 1]               
 71                -1  1     36992  models.common.Conv                      [64, 64, 3, 1]                
 72                -1  1     36992  models.common.Conv                      [64, 64, 3, 1]                
 73                -1  1     36992  models.common.Conv                      [64, 64, 3, 1]                
 74[-1, -2, -3, -4, -5, -6]  1         0  models.common.Concat                    [1]                           
 75                -1  1     65792  models.common.Conv                      [512, 128, 1, 1]              
 76                -1  1      8320  models.common.Conv                      [128, 64, 1, 1]               
 77                -1  1         0  torch.nn.modules.upsampling.Upsample    [None, 2, 'nearest']          
 78                11  1     16512  models.common.Conv                      [256, 64, 1, 1]               
 79          [-1, -2]  1         0  models.common.Concat                    [1]                           
 80                -1  1      8320  models.common.Conv                      [128, 64, 1, 1]               
 81                -2  1      8320  models.common.Conv                      [128, 64, 1, 1]               
 82                -1  1     18496  models.common.Conv                      [64, 32, 3, 1]                
 83                -1  1      9280  models.common.Conv                      [32, 32, 3, 1]                
 84                -1  1      9280  models.common.Conv                      [32, 32, 3, 1]                
 85                -1  1      9280  models.common.Conv                      [32, 32, 3, 1]                
 86[-1, -2, -3, -4, -5, -6]  1         0  models.common.Concat                    [1]                           
 87                -1  1     16512  models.common.Conv                      [256, 64, 1, 1]               
 88                -1  1         0  models.common.MP                        []                            
 89                -1  1      4224  models.common.Conv                      [64, 64, 1, 1]                
 90                -3  1      4224  models.common.Conv                      [64, 64, 1, 1]                
 91                -1  1     36992  models.common.Conv                      [64, 64, 3, 2]                
 92      [-1, -3, 75]  1         0  models.common.Concat                    [1]                           
 93                -1  1     33024  models.common.Conv                      [256, 128, 1, 1]              
 94                -2  1     33024  models.common.Conv                      [256, 128, 1, 1]              
 95                -1  1     73856  models.common.Conv                      [128, 64, 3, 1]               
 96                -1  1     36992  models.common.Conv                      [64, 64, 3, 1]                
 97                -1  1     36992  models.common.Conv                      [64, 64, 3, 1]                
 98                -1  1     36992  models.common.Conv                      [64, 64, 3, 1]                
 99[-1, -2, -3, -4, -5, -6]  1         0  models.common.Concat                    [1]                           
100                -1  1     65792  models.common.Conv                      [512, 128, 1, 1]              
101                -1  1         0  models.common.MP                        []                            
102                -1  1     16640  models.common.Conv                      [128, 128, 1, 1]              
103                -3  1     16640  models.common.Conv                      [128, 128, 1, 1]              
104                -1  1    147712  models.common.Conv                      [128, 128, 3, 2]              
105      [-1, -3, 63]  1         0  models.common.Concat                    [1]                           
106                -1  1    131584  models.common.Conv                      [512, 256, 1, 1]              
107                -2  1    131584  models.common.Conv                      [512, 256, 1, 1]              
108                -1  1    295168  models.common.Conv                      [256, 128, 3, 1]              
109                -1  1    147712  models.common.Conv                      [128, 128, 3, 1]              
110                -1  1    147712  models.common.Conv                      [128, 128, 3, 1]              
111                -1  1    147712  models.common.Conv                      [128, 128, 3, 1]              
112[-1, -2, -3, -4, -5, -6]  1         0  models.common.Concat                    [1]                           
113                -1  1    262656  models.common.Conv                      [1024, 256, 1, 1]             
114                -1  1         0  models.common.MP                        []                            
115                -1  1     66048  models.common.Conv                      [256, 256, 1, 1]              
116                -3  1     66048  models.common.Conv                      [256, 256, 1, 1]              
117                -1  1    590336  models.common.Conv                      [256, 256, 3, 2]              
118      [-1, -3, 51]  1         0  models.common.Concat                    [1]                           
119                -1  1    525312  models.common.Conv                      [1024, 512, 1, 1]             
120                -2  1    525312  models.common.Conv                      [1024, 512, 1, 1]             
121                -1  1   1180160  models.common.Conv                      [512, 256, 3, 1]              
122                -1  1    590336  models.common.Conv                      [256, 256, 3, 1]              
123                -1  1    590336  models.common.Conv                      [256, 256, 3, 1]              
124                -1  1    590336  models.common.Conv                      [256, 256, 3, 1]              
125[-1, -2, -3, -4, -5, -6]  1         0  models.common.Concat                    [1]                           
126                -1  1   1049600  models.common.Conv                      [2048, 512, 1, 1]             
127                87  1     82432  models.common.RepConv                   [64, 128, 3, 1]               
128               100  1    328704  models.common.RepConv                   [128, 256, 3, 1]              
129               113  1   1312768  models.common.RepConv                   [256, 512, 3, 1]              
130               126  1   5246976  models.common.RepConv                   [512, 1024, 3, 1]             
131[127, 128, 129, 130]  1     36624  models.yolo.IDetect                     [1, [[12, 15, 30, 15, 15, 30], [56, 19, 28, 43, 93, 30], [46, 95, 167, 48, 110, 155], [383, 136, 286, 354, 609, 255]], [128, 256, 512, 1024]]
Model Summary: 509 layers, 37747888 parameters, 37747888 gradients, 118.9 GFLOPS

Transferred 409/696 items from ../model_zoo/yolov7_training.pt
Scaled weight_decay = 0.0005
…
